chatbot/data.pth (torch, 4543 bytes, 6 tensors)

l1.weight f4 [8, 43]
000000 57 ca 1b 3f 3f 9b 9e be 88 1a 65 3e 73 4f 6d 3e
       0.6085562 -0.30977818 0.22373402 0.23174839
000010 f9 95 2e 3d c8 3d 6d bf 93 60 90 bd ea e2 2c be
       0.042623494 -0.92672396 -0.0704967 -0.16883436
000020 f3 0e 1b 3f 3c b9 42 3f 15 72 f5 bd 9f 20 64 bf
       0.60569686 0.76063895 -0.1198465 -0.89112276
000030 4a 7c 1e 3e 08 5f f0 bd ae c1 89 3e 26 20 00 3f
       0.154771 -0.11736876 0.26905578 0.50049055
000040 66 66 d2 3e 06 97 15 3f db a7 24 be c0 14 bb 3c
       0.4109375 0.5843357 -0.16079657 0.022837043
000050 05 03 b4 be 47 db 35 3e 3a 59 45 3e 32 51 9c 3e
       -0.35158554 0.17759429 0.19272318 0.30530697
000060 46 7f b6 be 7e e8 8b be be 1d 99 be b6 9d 0b be
       -0.35643977 -0.27325815 -0.29905504 -0.1363438
000070 8e 0a 61 3e 82 18 d0 be 23 b1 a1 be 46 fe fa 3e
       0.21976683 -0.40643698 -0.31580457 0.4902212
000080 de 2b 0f be 37 85 37 be 7c f7 94 3f f2 03 0a 3f
       -0.13981578 -0.17921911 1.1638026 0.5391227
000090 c9 12 6c be a2 14 e5 bd b6 12 50 3c d0 38 34 3f
       -0.23054041 -0.11185576 0.012699774 0.7039919
0000a0 39 c8 32 be aa 86 5a 3f 43 12 17 3f a6 3f 4f 3d
       -0.17459191 0.8536173 0.5901224 0.05059781
0000b0 39 a5 0b 3e 14 9f 03 bf a0 a3 07 bf 13 41 68 be
       0.13637246 -0.5141461 -0.52984047 -0.22681074
0000c0 36 16 5f 3f f4 ad 00 be a2 54 ed 3e 98 78 35 be
       0.87143266 -0.12566358 0.46353632 -0.17721784
0000d0 aa c8 de be 32 d8 0b be 69 38 3b 3f f9 1c 68 be
       -0.4351247 -0.1365669 0.7313295 -0.22667302
0000e0 2d af 86 bc 17 5a 58 3f 9e 44 48 3f 68 29 67 3f
       -0.016440952 0.84512466 0.782297 0.90297556
0000f0 bf fa 86 bd d2 d1 11 3e 85 84 2f be 9c a9 49 3e
       -0.06590795 0.14240196 -0.17140396 0.19693607
000100 62 5d e3 be 9f b7 81 be 05 95 19 bf be 19 d8 3e
       -0.44407183 -0.25335404 -0.5999301 0.4220714
000110 61 02 ef be d8 80 b8 be bf 84 fe bb 11 59 2a be
       -0.46681502 -0.360358 -0.0077672894 -0.16635539
000120 f9 ed 21 3f 91 5a 5a bd f2 04 6b be 1d d6 3f be
       0.6325374 -0.053309027 -0.22951105 -0.18734021
000130 bc 1e 0d 3e 1f 2d 9d 3e a3 5f 1e be 9a 89 ff 3c
       0.13781255 0.30698487 -0.1546617 0.031193543
000140 89 61 a8 bd 81 bb 67 3d 97 e0 06 be 88 40 7e be
       -0.08221728 0.056575302 -0.13171612 -0.24829304
000150 83 76 1e bf 8e b7 c2 3e b0 99 93 be c1 f9 c8 3e
       -0.61899585 0.38030666 -0.28828192 0.39253047
000160 1f 4c 8c be 55 ed 8b be 1d e6 29 be 59 05 49 3f
       -0.27401826 -0.27329507 -0.16591688 0.78523785
000170 a7 52 17 be cc ee 94 3f 33 6a 9f bc fb 9c 01 bf
       -0.14777623 1.1635375 -0.01945982 -0.5063016
000180 9b a4 a5 be a6 90 56 3f 18 19 16 be fe b7 1b 3d
       -0.32352147 0.83814466 -0.1465801 0.038017265
000190 67 ca bc 3e 0e a0 36 3f 3e 80 1a 3f 6c a2 07 be
       0.3687317 0.71337974 0.6035193 -0.13245553
0001a0 32 6c ca 3e 2a ba 9e bc 5d 6d 15 3f 59 1d 9d be
       0.3953567 -0.01937588 0.5837 -0.30686453
0001b0 cf 64 ad bd 0e fa 70 be e6 9d 15 3f 85 01 31 be
       -0.08466493 -0.23532888 0.5844406 -0.17285736
0001c0 db c4 80 be 90 4a 01 3e f3 ac 00 be 53 d2 04 3f
       -0.2515019 0.126261 -0.12565975 0.5188343
0001d0 5c 7a ad 3e 0f 0c ec be a2 d3 5f be cb 4f f2 3e
       0.33882415 -0.4610295 -0.21858075 0.47326502
0001e0 fa bc 20 3f ad bb d3 bd f5 ef 5f 3e 2e b8 c2 bd
       0.62788355 -0.10338531 0.2186888 -0.09507786
0001f0 c2 5b ac 3e e0 e2 eb be 97 24 bb be 2c ec fc be
       0.33663756 -0.4607153 -0.36551353 -0.49398935
000200 de e2 d9 3e 37 31 9d bd 07 62 39 3e 9e 89 c0 be
       0.42555898 -0.076754026 0.181038 -0.37604994
000210 77 17 0c bf 50 b9 2e be 24 25 00 3f b6 a0 19 3f
       -0.54723305 -0.17062879 0.5005667 0.6001085
000220 4f b7 9d bf 1d 4b 2b 3e ec 8f d1 3e 0f a5 20 3f
       -1.2321566 0.16727872 0.40930116 0.6275186
000230 dc da 7f 3e 3b 81 8b be de df 9b bd e1 0c 28 3f
       0.24985832 -0.27247033 -0.07611059 0.6564465
000240 11 dd 45 3f 06 23 6d 3f 52 00 12 3e f4 d1 71 3e
       0.77290446 0.92631567 0.14257935 0.23615247
000250 c4 08 4f be 5f 43 3a be 71 c9 e5 be c4 92 26 be
       -0.20218188 -0.18189763 -0.4488025 -0.16266924
000260 2b 71 f3 be 4b 55 b5 3e 56 fc 5b 3f ac 7e 6c 3f
       -0.47547278 0.35416636 0.8593191 0.92380786
000270 1c 18 80 3e bc 07 33 be 83 c2 cd 3e 63 ce 80 3e
       0.25018394 -0.17483419 0.40187463 0.2515746
000280 c9 29 2d 3e c1 56 e7 3e 64 ab a3 3a 0d 54 6b bf
       0.16910471 0.45183375 0.0012486991 -0.91925126
000290 d5 f2 02 3e cc 36 da 3e 68 c1 fd 3e 01 83 07 be
       0.12787946 0.42619932 0.4956162 -0.13233568
0002a0 0e 3b 8f 3e a2 18 20 3f f9 ff 8c 3e 44 de 7d bd
       0.27974743 0.62537587 0.27539042 -0.061979547
0002b0 44 84 78 be 34 5c 50 3f 2a c5 4f be 78 ef 9a 3d
       -0.24269205 0.8139069 -0.20290056 0.07565206
0002c0 a6 7e 0a be 03 34 52 3f 94 9e 26 bd d6 f0 58 be
       -0.13524875 0.82110614 -0.040678576 -0.21185622
0002d0 1e b0 39 be 77 c7 ea be 79 6d 6c be aa f3 49 3f
       -0.1813359 -0.45855305 -0.23088636 0.78887427
0002e0 b8 84 4a bc 01 c6 a3 3e af ee b6 bd 16 9a cc bd
       -0.012360744 0.31987002 -0.08932244 -0.09990327
0002f0 2b e6 0d bd 14 81 8c bd a6 73 ba 3e c3 68 06 3d
       -0.034643333 -0.06860557 0.36416358 0.032814752
000300 c1 0b 63 3f fa 01 3b 3d 35 ce b0 3d a5 91 43 bc
       0.8868981 0.045656182 0.08633081 -0.01193658
000310 ec 27 22 3f e6 e1 d1 be 93 1b 01 bf 7d 4c fb 3e
       0.63342166 -0.4099266 -0.504327 0.49081793
000320 02 92 0e be 6d 2b 38 3f d0 a2 1d 3f 57 2a 38 be
       -0.13922885 0.7194126 0.6157656 -0.17984901
000330 2c b8 8a be 12 d1 21 3f 58 08 17 bf 2c 98 c8 bd
       -0.27093637 0.6320964 -0.58997107 -0.097946495
000340 4b 6b b4 3e 50 20 f5 be 07 95 e3 3e bb cc 40 be
       0.35238108 -0.47876215 0.44449636 -0.18828098
000350 ee df db bd 87 19 17 bf c9 b7 6f 3d 4e da 09 be
       -0.107360706 -0.59023327 0.05852488 -0.13462183
000360 c6 80 7b 3f 1c bb 4b 3f a2 c4 2f 3f 50 f1 d2 3e
       0.9824337 0.7958238 0.6865941 0.41199732
000370 0b 70 77 3f d8 c9 17 bd d0 2a a7 3f 51 7d 4c be
       0.9665534 -0.037057728 1.305994 -0.1996968
000380 d7 8a 7b be c1 f1 75 be 95 33 e6 3e 99 c0 22 3f
       -0.24564682 -0.24018003 0.4496123 0.6357513
000390 39 17 bd 3e 72 b5 0e bf 64 e6 0f bf 31 b8 0e bf
       0.3693178 -0.55745614 -0.56210923 -0.55749804
0003a0 10 fa f5 bd 11 b5 d7 3e 45 a1 06 3f 92 45 82 3f
       -0.12010586 0.4213033 0.5258983 1.0177481
0003b0 bb 2c 0a 3f 53 c2 0e 3f 7f c3 48 3f 2a 70 01 3f
       0.53974503 0.55765265 0.78423303 0.50561774
0003c0 11 db b0 be 2d 61 e2 be 89 0a f8 3e 54 b9 15 3f
       -0.34542134 -0.44214764 0.48445538 0.58485913
0003d0 bc 3d d7 3e 09 d7 59 3f d3 e9 4e be 6e 36 b0 be
       0.42039287 0.8509374 -0.20206384 -0.34416527
0003e0 0d d0 29 3f 2b 0c b6 3d 0d ef 7f bd 8d 05 a7 3e
       0.66333085 0.088890396 -0.062483836 0.32621422
0003f0 14 77 f7 be 2b ee 10 3f 9d 85 1c be 93 dd 1a be
       -0.48333037 0.56613415 -0.15285344 -0.15123586

l1.bias f4 [8]
000000 02 1f 7a 3f b6 aa 85 3f e6 cb 0a 3f cf 79 7b 3f
       0.97703564 1.0442722 0.54217374 0.9823274
000010 ab 18 17 3f 39 a6 0e 3f 5e e0 9d 3f 0c 5c 18 3f
       0.59022015 0.55722386 1.2334096 0.5951545

l2.weight f4 [8, 8]
000000 22 a7 fe be e8 27 ca 3f e5 6c a8 3f 26 54 ad be
       -0.49736887 1.5793428 1.3158232 -0.33853263
000010 2c 54 6a 3f 40 2d fc 3e e6 83 a1 3e fe c6 d5 3e
       0.91534686 0.49253273 0.31545943 0.41753381
000020 53 70 ee be 67 f4 b4 3d 63 e5 f3 3e 2a 54 98 bf
       -0.46570072 0.088356785 0.47635946 -1.1900685
000030 a8 f0 a6 3f 67 df fa 3f b2 82 31 3f 10 02 ac 3f
       1.3042192 1.9599427 0.6934005 1.343813
000040 b7 b6 84 bf a5 cc ac 3f 13 85 ad 3f 35 25 69 3d
       -1.036826 1.3499953 1.3556236 0.05692025
000050 61 a0 98 3f a0 e3 61 bd a8 f4 26 3f b4 e2 8e 3e
       1.1923944 -0.05514872 0.65217066 0.27907336
000060 05 f5 6c be 73 cb b4 bd cb a0 d7 be 1e a7 ea 3f
       -0.23140343 -0.08827867 -0.42114863 1.833225
000070 96 7a 07 3f aa 4c 89 be 2e ce 8f 3f 13 a4 f7 be
       0.52921426 -0.26816303 1.1234796 -0.48367366
000080 80 00 c4 3d f8 12 77 3d 28 91 c1 bd 07 88 9d be
       0.09570408 0.060320824 -0.094515145 -0.30767843
000090 b4 d7 d7 3d e5 fe 9f be 06 37 a9 be 9c 59 fa 3d
       0.10539189 -0.31249157 -0.33049792 0.12224123
0000a0 80 bc 8c 3f cf de 3f be 79 59 df bd fb 9d 1a bf
       1.0995026 -0.18737338 -0.109057374 -0.6039731
0000b0 66 e4 99 be 14 72 4d 3f 02 1e ff 3e 5d 16 9b 3f
       -0.30057067 0.80252194 0.49827582 1.21162
0000c0 70 20 8d 3f 48 a2 c2 3f 24 47 f0 3e 30 8a 9f 3f
       1.1025524 1.5205774 0.46929276 1.2464046
0000d0 d7 c7 a0 3d 32 d7 94 bf 66 0a 9c 3f 32 47 3f bf
       0.078506164 -1.1628172 1.2190673 -0.7471801
0000e0 46 92 4c bd 7c 3e e5 bd b0 0d 76 be 6e f9 34 3e
       -0.049944185 -0.111935586 -0.24028659 0.17673275
0000f0 8d 7d 33 be bd 7c 95 3e 70 4b bf be de e7 67 be
       -0.17528363 0.2919673 -0.37362242 -0.22647044

l2.bias f4 [8]
000000 37 d2 90 3e 94 50 39 3e 5b ab 6a be cc 64 28 3f
       0.2828538 0.18097144 -0.2291693 0.65778804
000010 21 d3 52 be 29 31 3f 3f 21 6d 73 3f da 33 8a be
       -0.20588352 0.7468439 0.9508839 -0.26992685

l3.weight f4 [8, 8]
000000 00 80 78 3e a9 95 8d 3e 1d 8b bc 3e e7 cd ed bf
       0.24267578 0.27653244 0.36824885 -1.8578461
000010 ce ec 2a be 8a 25 b6 bd 9d dd f0 bf 96 6c 80 3c
       -0.16691896 -0.08893879 -1.8817631 0.015676778
000020 d2 0c 27 3e 17 40 3f be 9a ae 5d 3e 6f 79 5e 3d
       0.16313484 -0.18676792 0.21648636 0.054315027
000030 ce fb 1a 3e 9c 9f 5b bf cd fd 1e be fa 9e b3 be
       0.15135118 -0.8579042 -0.15526505 -0.35082227
000040 31 95 c1 3d 62 69 d3 bf b7 c7 5c 3d db 26 2e 3e
       0.09452284 -1.6516535 0.0539014 0.1700701
000050 f7 a6 96 3e bf ad 3f bf b4 30 da 3e 21 ac c8 3d
       0.2942426 -0.7487449 0.42615283 0.09798456
000060 0b 35 82 3d fc 8d 7c 3e a0 47 a5 3e 42 31 4b be
       0.063577734 0.24663538 0.32281208 -0.19843009
000070 9e 87 94 be 45 aa b7 be ae 2e 8a bf 66 ec ac be
       -0.29009718 -0.35872093 -1.0795496 -0.33774108
000080 bf 23 02 be 89 e3 42 3f 7b 24 c5 bf 3b 63 c4 be
       -0.12708949 0.7612844 -1.5401758 -0.38356957
000090 84 3c 8d 3d 1b 97 30 3f ba fd ab bf ba 14 a8 be
       0.06896308 0.6898057 -1.3436806 -0.32828313
0000a0 69 21 bf bf 3a af 8b bf 70 d1 dd be 14 9b 59 3f
       -1.4932071 -1.091285 -0.4332385 0.85002255
0000b0 c7 20 83 3e 1d 2d b0 bf c3 14 b6 3e 85 df 2c 3e
       0.25610945 -1.3763767 0.35562715 0.16882141
0000c0 ff 41 8e 3c 2d 0e 9c bc c5 fd 3c bf 07 57 66 bf
       0.017365454 -0.019049728 -0.7382472 -0.89976543
0000d0 f4 62 e2 3d 2d f8 01 3f 1d 7d ba 3d 3d f3 37 be
       0.1105403 0.5076931 0.09105895 -0.17963882
0000e0 67 3f 8b bf 76 93 b7 bf c5 b7 b7 bf e0 c5 31 3e
       -1.0878724 -1.4341877 -1.4352957 0.1736064
0000f0 34 9b 8c be bb d5 34 3f b1 4a 1a 3f 1c 0e 1b bd
       -0.2746216 0.70638627 0.6027022 -0.037855253

l3.bias f4 [8]
000000 25 62 2c 3c f9 78 7a 3e 77 8a 79 bd be f9 30 be
       0.010521446 0.2446021 -0.060923066 -0.17282769
000010 6d ff dc 3c f8 9d 0a bc 6e 5d 6d 3e 33 3b 30 be
       0.026977265 -0.008460514 0.23180172 -0.17210083
